Files already downloaded and verified
Files already downloaded and verified
Files already downloaded and verified
==> Building model with layer structure : [3, 3, 3]
The dropout value on linear layer:  0.2
----------------------------------------------------------------
        Layer (type)               Output Shape         Param #
================================================================
            Conv2d-1           [-1, 64, 32, 32]           1,728
       BatchNorm2d-2           [-1, 64, 32, 32]             128
            Conv2d-3           [-1, 64, 32, 32]          36,864
       BatchNorm2d-4           [-1, 64, 32, 32]             128
           Dropout-5           [-1, 64, 32, 32]               0
            Conv2d-6           [-1, 64, 32, 32]          36,864
       BatchNorm2d-7           [-1, 64, 32, 32]             128
        BasicBlock-8           [-1, 64, 32, 32]               0
            Conv2d-9           [-1, 64, 32, 32]          36,864
      BatchNorm2d-10           [-1, 64, 32, 32]             128
          Dropout-11           [-1, 64, 32, 32]               0
           Conv2d-12           [-1, 64, 32, 32]          36,864
      BatchNorm2d-13           [-1, 64, 32, 32]             128
       BasicBlock-14           [-1, 64, 32, 32]               0
           Conv2d-15           [-1, 64, 32, 32]          36,864
      BatchNorm2d-16           [-1, 64, 32, 32]             128
          Dropout-17           [-1, 64, 32, 32]               0
           Conv2d-18           [-1, 64, 32, 32]          36,864
      BatchNorm2d-19           [-1, 64, 32, 32]             128
       BasicBlock-20           [-1, 64, 32, 32]               0
           Conv2d-21          [-1, 128, 16, 16]          73,728
      BatchNorm2d-22          [-1, 128, 16, 16]             256
          Dropout-23          [-1, 128, 16, 16]               0
           Conv2d-24          [-1, 128, 16, 16]         147,456
      BatchNorm2d-25          [-1, 128, 16, 16]             256
           Conv2d-26          [-1, 128, 16, 16]           8,192
      BatchNorm2d-27          [-1, 128, 16, 16]             256
       BasicBlock-28          [-1, 128, 16, 16]               0
           Conv2d-29          [-1, 128, 16, 16]         147,456
      BatchNorm2d-30          [-1, 128, 16, 16]             256
          Dropout-31          [-1, 128, 16, 16]               0
           Conv2d-32          [-1, 128, 16, 16]         147,456
      BatchNorm2d-33          [-1, 128, 16, 16]             256
       BasicBlock-34          [-1, 128, 16, 16]               0
           Conv2d-35          [-1, 128, 16, 16]         147,456
      BatchNorm2d-36          [-1, 128, 16, 16]             256
          Dropout-37          [-1, 128, 16, 16]               0
           Conv2d-38          [-1, 128, 16, 16]         147,456
      BatchNorm2d-39          [-1, 128, 16, 16]             256
       BasicBlock-40          [-1, 128, 16, 16]               0
           Conv2d-41            [-1, 256, 4, 4]         294,912
      BatchNorm2d-42            [-1, 256, 4, 4]             512
          Dropout-43            [-1, 256, 4, 4]               0
           Conv2d-44            [-1, 256, 4, 4]         589,824
      BatchNorm2d-45            [-1, 256, 4, 4]             512
           Conv2d-46            [-1, 256, 4, 4]          32,768
      BatchNorm2d-47            [-1, 256, 4, 4]             512
       BasicBlock-48            [-1, 256, 4, 4]               0
           Conv2d-49            [-1, 256, 4, 4]         589,824
      BatchNorm2d-50            [-1, 256, 4, 4]             512
          Dropout-51            [-1, 256, 4, 4]               0
           Conv2d-52            [-1, 256, 4, 4]         589,824
      BatchNorm2d-53            [-1, 256, 4, 4]             512
       BasicBlock-54            [-1, 256, 4, 4]               0
           Conv2d-55            [-1, 256, 4, 4]         589,824
      BatchNorm2d-56            [-1, 256, 4, 4]             512
          Dropout-57            [-1, 256, 4, 4]               0
           Conv2d-58            [-1, 256, 4, 4]         589,824
      BatchNorm2d-59            [-1, 256, 4, 4]             512
       BasicBlock-60            [-1, 256, 4, 4]               0
           Linear-61                  [-1, 128]          32,896
             ReLU-62                  [-1, 128]               0
          Dropout-63                  [-1, 128]               0
           Linear-64                   [-1, 10]           1,290
================================================================
Total params: 4,359,370
Trainable params: 4,359,370
Non-trainable params: 0
----------------------------------------------------------------
Input size (MB): 0.01
Forward/backward pass size (MB): 15.63
Params size (MB): 16.63
Estimated Total Size (MB): 32.27
----------------------------------------------------------------
…
