…
ng https://www.cs.toronto.edu/~kriz/cifar-10-python.tar.gz to .data/cifar-10-python.tar.gz
100% 170498071/170498071 [00:12<00:00, 13160139.94it/s]
Extracting .data/cifar-10-python.tar.gz to .data
Files already downloaded and verified
Files already downloaded and verified
==> Building model with layer structure : [2, 1, 1, 1]
The dropout value on linear layer:  0
----------------------------------------------------------------
        Layer (type)               Output Shape         Param #
================================================================
            Conv2d-1           [-1, 64, 32, 32]           1,728
       BatchNorm2d-2           [-1, 64, 32, 32]             128
            Conv2d-3           [-1, 64, 32, 32]          36,864
       BatchNorm2d-4           [-1, 64, 32, 32]             128
            Conv2d-5           [-1, 64, 32, 32]          36,864
       BatchNorm2d-6           [-1, 64, 32, 32]             128
        BasicBlock-7           [-1, 64, 32, 32]               0
            Conv2d-8           [-1, 64, 32, 32]          36,864
       BatchNorm2d-9           [-1, 64, 32, 32]             128
           Conv2d-10           [-1, 64, 32, 32]          36,864
      BatchNorm2d-11           [-1, 64, 32, 32]             128
       BasicBlock-12           [-1, 64, 32, 32]               0
           Conv2d-13          [-1, 128, 16, 16]          73,728
      BatchNorm2d-14          [-1, 128, 16, 16]             256
           Conv2d-15          [-1, 128, 16, 16]         147,456
      BatchNorm2d-16          [-1, 128, 16, 16]             256
           Conv2d-17          [-1, 128, 16, 16]           8,192
      BatchNorm2d-18          [-1, 128, 16, 16]             256
       BasicBlock-19          [-1, 128, 16, 16]               0
           Conv2d-20            [-1, 256, 8, 8]         294,912
      BatchNorm2d-21            [-1, 256, 8, 8]             512
           Conv2d-22            [-1, 256, 8, 8]         589,824
      BatchNorm2d-23            [-1, 256, 8, 8]             512
           Conv2d-24            [-1, 256, 8, 8]          32,768
      BatchNorm2d-25            [-1, 256, 8, 8]             512
       BasicBlock-26            [-1, 256, 8, 8]               0
           Conv2d-27            [-1, 512, 4, 4]       1,179,648
      BatchNorm2d-28            [-1, 512, 4, 4]           1,024
           Conv2d-29            [-1, 512, 4, 4]       2,359,296
      BatchNorm2d-30            [-1, 512, 4, 4]           1,024
           Conv2d-31            [-1, 512, 4, 4]         131,072
      BatchNorm2d-32            [-1, 512, 4, 4]           1,024
       BasicBlock-33            [-1, 512, 4, 4]               0
           Linear-34                   [-1, 10]           5,130
================================================================
Total params: 4,977,226
Trainable params: 4,977,226
Non-trainable params: 0
----------------------------------------------------------------
Input size (MB): 0.01
Forward/backward pass size (MB): 9.06
Params size (MB): 18.99
Estimated Total Size (MB): 28.06
----------------------------------------------------------------
==> Learning Rate  0.1
…
